…
2024-05-05 09:53:09: 	Output dir: /home/gridsan/ppaschalidis/Ersilia-FS/fs_mol/outputs/train/FSMol_ProtoNet_2024-05-03-support-16/FSMol_ProtoNet_gnn+ecfp+fc_2024-05-05_09-53-09
2024-05-05 09:53:09: 	Data path: /home/gridsan/ppaschalidis/Ersilia-FS/dataset/min_size_16
2024-05-05 09:53:09: Identified 655 training tasks.
2024-05-05 09:53:09: Identified 34 validation tasks.
2024-05-05 09:53:09: Identified 200 test tasks.
2024-05-05 09:53:09: 	Device: cpu
2024-05-05 09:53:09: 	Num parameters 19042338
2024-05-05 09:53:09: 	Model:
PrototypicalNetworkTrainer(
  (graph_feature_extractor): GraphFeatureExtractor(
    (init_node_proj): Linear(in_features=32, out_features=128, bias=False)
    (gnn): GNN(
      (gnn_blocks): ModuleList(
        (0): GNNBlock(
          (mp_layers): ModuleList(
            (0): RelationalMultiAggrMP(
              (message_fns): ModuleList(
                (0): MLP(
                  (_layers): Sequential(
                    (0): Linear(in_features=64, out_features=192, bias=True)
                  )
                )
                (1): MLP(
                  (_layers): Sequential(
                    (0): Linear(in_features=64, out_features=192, bias=True)
                  )
                )
                (2): MLP(
                  (_layers): Sequential(
                    (0): Linear(in_features=64, out_features=192, bias=True)
                  )
                )
              )
            )
            (1): RelationalMultiAggrMP(
              (message_fns): ModuleList(
                (0): MLP(
                  (_layers): Sequential(
                    (0): Linear(in_features=64, out_features=192, bias=True)
                  )
                )
                (1): MLP(
                  (_layers): Sequential(
                    (0): Linear(in_features=64, out_features=192, bias=True)
                  )
                )
                (2): MLP(
                  (_layers): Sequential(
                    (0): Linear(in_features=64, out_features=192, bias=True)
                  )
                )
              )
            )
            (2): RelationalMultiAggrMP(
              (message_fns): ModuleList(
                (0): MLP(
                  (_layers): Sequential(
                    (0): Linear(in_features=64, out_features=192, bias=True)
                  )
                )
                (1): MLP(
                  (_layers): Sequential(
                    (0): Linear(in_features=64, out_features=192, bias=True)
                  )
                )
                (2): MLP(
                  (_layers): Sequential(
                    (0): Linear(in_features=64, out_features=192, bias=True)
                  )
                )
              )
            )
            (3): RelationalMultiAggrMP(
              (message_fns): ModuleList(
                (0): MLP(
                  (_layers): Sequential(
                    (0): Linear(in_features=64, out_features=192, bias=True)
                  )
                )
                (1): MLP(
                  (_layers): Sequential(
                    (0): Linear(in_features=64, out_features=192, bias=True)
                  )
                )
                (2): MLP(
                  (_layers): Sequential(
                    (0): Linear(in_features=64, out_features=192, bias=True)
                  )
                )
              )
            )
          )
          (msg_out_projection): Linear(in_features=3072, out_features=128, bias=True)
          (mp_norm_layer): LayerNorm((128,), eps=1e-05, elementwise_affine=True)
          (boom_layer): BOOMLayer(
            (linear1): Linear(in_features=128, out_features=1024, bias=True)
            (activation): LeakyReLU(negative_slope=0.01)
            (dropout): Dropout(p=0.0, inplace=False)
            (linear2): Linear(in_features=1024, out_features=128, bias=True)
          )
          (boom_norm_layer): LayerNorm((128,), eps=1e-05, elementwise_affine=True)
          (dropout_layer): Dropout(p=0.0, inplace=False)
        )
        (1): GNNBlock(
          (mp_layers): ModuleList(
            (0): RelationalMultiAggrMP(
              (message_fns): ModuleList(
                (0): MLP(
                  (_layers): Sequential(
                    (0): Linear(in_features=64, out_features=192, bias=True)
                  )
                )
                (1): MLP(
                  (_layers): Sequential(
                    (0): Linear(in_features=64, out_features=192, bias=True)
                  )
                )
                (2): MLP(
                  (_layers): Sequential(
                    (0): Linear(in_features=64, out_features=192, bias=True)
                  )
                )
              )
            )
            (1): RelationalMultiAggrMP(
              (message_fns): ModuleList(
                (0): MLP(
                  (_layers): Sequential(
                    (0): Linear(in_features=64, out_features=192, bias=True)
                  )
                )
                (1): MLP(
                  (_layers): Sequential(
                    (0): Linear(in_features=64, out_features=192, bias=True)
                  )
                )
                (2): MLP(
                  (_layers): Sequential(
                    (0): Linear(in_features=64, out_features=192, bias=True)
                  )
                )
              )
            )
            (2): RelationalMultiAggrMP(
              (message_fns): ModuleList(
                (0): MLP(
                  (_layers): Sequential(
                    (0): Linear(in_features=64, out_features=192, bias=True)
                  )
                )
                (1): MLP(
                  (_layers): Sequential(
                    (0): Linear(in_features=64, out_features=192, bias=True)
                  )
                )
                (2): MLP(
                  (_layers): Sequential(
                    (0): Linear(in_features=64, out_features=192, bias=True)
                  )
                )
              )
            )
            (3): RelationalMultiAggrMP(
              (message_fns): ModuleList(
                (0): MLP(
                  (_layers): Sequential(
                    (0): Linear(in_features=64, out_features=192, bias=True)
                  )
                )
                (1): MLP(
                  (_layers): Sequential(
                    (0): Linear(in_features=64, out_features=192, bias=True)
                  )
                )
                (2): MLP(
                  (_layers): Sequential(
                    (0): Linear(in_features=64, out_features=192, bias=True)
                  )
                )
              )
            )
          )
          (msg_out_projection): Linear(in_features=3072, out_features=128, bias=True)
          (mp_norm_layer): LayerNorm((128,), eps=1e-05, elementwise_affine=True)
          (boom_layer): BOOMLayer(
            (linear1): Linear(in_features=128, out_features=1024, bias=True)
            (activation): LeakyReLU(negative_slope=0.01)
            (dropout): Dropout(p=0.0, inplace=False)
            (linear2): Linear(in_features=1024, out_features=128, bias=True)
          )
          (boom_norm_layer): LayerNorm((128,), eps=1e-05, elementwise_affine=True)
          (dropout_layer): Dropout(p=0.0, inplace=False)
        )
        (2): GNNBlock(
          (mp_layers): ModuleList(
            (0): RelationalMultiAggrMP(
              (message_fns): ModuleList(
                (0): MLP(
                  (_layers): Sequential(
                    (0): Linear(in_features=64, out_features=192, bias=True)
                  )
                )
                (1): MLP(
                  (_layers): Sequential(
                    (0): Linear(in_features=64, out_features=192, bias=True)
                  )
                )
                (2): MLP(
                  (_layers): Sequential(
                    (0): Linear(in_features=64, out_features=192, bias=True)
                  )
                )
              )
            )
            (1): RelationalMultiAggrMP(
              (message_fns): ModuleList(
                (0): MLP(
                  (_layers): Sequential(
                    (0): Linear(in_features=64, out_features=192, bias=True)
                  )
                )
                (1): MLP(
                  (_layers): Sequential(
                    (0): Linear(in_features=64, out_features=192, bias=True)
                  )
                )
                (2): MLP(
                  (_layers): Sequential(
                    (0): Linear(in_features=64, out_features=192, bias=True)
                  )
                )
              )
            )
            (2): RelationalMultiAggrMP(
              (message_fns): ModuleList(
                (0): MLP(
                  (_layers): Sequential(
                    (0): Linear(in_features=64, out_features=192, bias=True)
                  )
                )
                (1): MLP(
                  (_layers): Sequential(
                    (0): Linear(in_features=64, out_features=192, bias=True)
                  )
                )
                (2): MLP(
                  (_layers): Sequential(
                    (0): Linear(in_features=64, out_features=192, bias=True)
                  )
                )
              )
            )
            (3): RelationalMultiAggrMP(
              (message_fns): ModuleList(
                (0): MLP(
                  (_layers): Sequential(
                    (0): Linear(in_features=64, out_features=192, bias=True)
                  )
                )
                (1): MLP(
                  (_layers): Sequential(
                    (0): Linear(in_features=64, out_features=192, bias=True)
                  )
                )
                (2): MLP(
                  (_layers): Sequential(
                    (0): Linear(in_features=64, out_features=192, bias=True)
                  )
                )
              )
            )
          )
          (msg_out_projection): Linear(in_features=3072, out_features=128, bias=True)
          (mp_norm_layer): LayerNorm((128,), eps=1e-05, elementwise_affine=True)
          (boom_layer): BOOMLayer(
            (linear1): Linear(in_features=128, out_features=1024, bias=True)
            (activation): LeakyReLU(negative_slope=0.01)
            (dropout): Dropout(p=0.0, inplace=False)
            (linear2): Linear(in_features=1024, out_features=128, bias=True)
          )
          (boom_norm_layer): LayerNorm((128,), eps=1e-05, elementwise_affine=True)
          (dropout_layer): Dropout(p=0.0, inplace=False)
        )
        (3): GNNBlock(
          (mp_layers): ModuleList(
            (0): RelationalMultiAggrMP(
              (message_fns): ModuleList(
                (0): MLP(
                  (_layers): Sequential(
                    (0): Linear(in_features=64, out_features=192, bias=True)
                  )
                )
                (1): MLP(
                  (_layers): Sequential(
                    (0): Linear(in_features=64, out_features=192, bias=True)
                  )
                )
                (2): MLP(
                  (_layers): Sequential(
                    (0): Linear(in_features=64, out_features=192, bias=True)
                  )
                )
              )
            )
            (1): RelationalMultiAggrMP(
              (message_fns): ModuleList(
                (0): MLP(
                  (_layers): Sequential(
                    (0): Linear(in_features=64, out_features=192, bias=True)
                  )
                )
                (1): MLP(
                  (_layers): Sequential(
                    (0): Linear(in_features=64, out_features=192, bias=True)
                  )
                )
                (2): MLP(
                  (_layers): Sequential(
                    (0): Linear(in_features=64, out_features=192, bias=True)
                  )
                )
              )
            )
            (2): RelationalMultiAggrMP(
              (message_fns): ModuleList(
                (0): MLP(
                  (_layers): Sequential(
                    (0): Linear(in_features=64, out_features=192, bias=True)
                  )
                )
                (1): MLP(
                  (_layers): Sequential(
                    (0): Linear(in_features=64, out_features=192, bias=True)
                  )
                )
                (2): MLP(
                  (_layers): Sequential(
                    (0): Linear(in_features=64, out_features=192, bias=True)
                  )
                )
              )
            )
            (3): RelationalMultiAggrMP(
              (message_fns): ModuleList(
                (0): MLP(
                  (_layers): Sequential(
                    (0): Linear(in_features=64, out_features=192, bias=True)
                  )
                )
                (1): MLP(
                  (_layers): Sequential(
                    (0): Linear(in_features=64, out_features=192, bias=True)
                  )
                )
                (2): MLP(
                  (_layers): Sequential(
                    (0): Linear(in_features=64, out_features=192, bias=True)
                  )
                )
              )
            )
          )
          (msg_out_projection): Linear(in_features=3072, out_features=128, bias=True)
          (mp_norm_layer): LayerNorm((128,), eps=1e-05, elementwise_affine=True)
          (boom_layer): BOOMLayer(
            (linear1): Linear(in_features=128, out_features=1024, bias=True)
            (activation): LeakyReLU(negative_slope=0.01)
            (dropout): Dropout(p=0.0, inplace=False)
            (linear2): Linear(in_features=1024, out_features=128, bias=True)
          )
          (boom_norm_layer): LayerNorm((128,), eps=1e-05, elementwise_affine=True)
          (dropout_layer): Dropout(p=0.0, inplace=False)
        )
        (4): GNNBlock(
          (mp_layers): ModuleList(
            (0): RelationalMultiAggrMP(
              (message_fns): ModuleList(
                (0): MLP(
                  (_layers): Sequential(
                    (0): Linear(in_features=64, out_features=192, bias=True)
                  )
                )
                (1): MLP(
                  (_layers): Sequential(
                    (0): Linear(in_features=64, out_features=192, bias=True)
                  )
                )
                (2): MLP(
                  (_layers): Sequential(
                    (0): Linear(in_features=64, out_features=192, bias=True)
                  )
                )
              )
            )
            (1): RelationalMultiAggrMP(
              (message_fns): ModuleList(
                (0): MLP(
                  (_layers): Sequential(
                    (0): Linear(in_features=64, out_features=192, bias=True)
                  )
                )
                (1): MLP(
                  (_layers): Sequential(
                    (0): Linear(in_features=64, out_features=192, bias=True)
                  )
                )
                (2): MLP(
                  (_layers): Sequential(
                    (0): Linear(in_features=64, out_features=192, bias=True)
                  )
                )
              )
            )
            (2): RelationalMultiAggrMP(
              (message_fns): ModuleList(
                (0): MLP(
                  (_layers): Sequential(
                    (0): Linear(in_features=64, out_features=192, bias=True)
                  )
                )
                (1): MLP(
                  (_layers): Sequential(
                    (0): Linear(in_features=64, out_features=192, bias=True)
                  )
                )
                (2): MLP(
                  (_layers): Sequential(
                    (0): Linear(in_features=64, out_features=192, bias=True)
                  )
                )
              )
            )
            (3): RelationalMultiAggrMP(
              (message_fns): ModuleList(
                (0): MLP(
                  (_layers): Sequential(
                    (0): Linear(in_features=64, out_features=192, bias=True)
                  )
                )
                (1): MLP(
                  (_layers): Sequential(
                    (0): Linear(in_features=64, out_features=192, bias=True)
                  )
                )
                (2): MLP(
                  (_layers): Sequential(
                    (0): Linear(in_features=64, out_features=192, bias=True)
                  )
                )
              )
            )
          )
          (msg_out_projection): Linear(in_features=3072, out_features=128, bias=True)
          (mp_norm_layer): LayerNorm((128,), eps=1e-05, elementwise_affine=True)
          (boom_layer): BOOMLayer(
            (linear1): Linear(in_features=128, out_features=1024, bias=True)
            (activation): LeakyReLU(negative_slope=0.01)
            (dropout): Dropout(p=0.0, inplace=False)
            (linear2): Linear(in_features=1024, out_features=128, bias=True)
          )
          (boom_norm_layer): LayerNorm((128,), eps=1e-05, elementwise_affine=True)
          (dropout_layer): Dropout(p=0.0, inplace=False)
        )
        (5): GNNBlock(
          (mp_layers): ModuleList(
            (0): RelationalMultiAggrMP(
              (message_fns): ModuleList(
                (0): MLP(
                  (_layers): Sequential(
                    (0): Linear(in_features=64, out_features=192, bias=True)
                  )
                )
                (1): MLP(
                  (_layers): Sequential(
                    (0): Linear(in_features=64, out_features=192, bias=True)
                  )
                )
                (2): MLP(
                  (_layers): Sequential(
                    (0): Linear(in_features=64, out_features=192, bias=True)
                  )
                )
              )
            )
            (1): RelationalMultiAggrMP(
              (message_fns): ModuleList(
                (0): MLP(
                  (_layers): Sequential(
                    (0): Linear(in_features=64, out_features=192, bias=True)
                  )
                )
                (1): MLP(
                  (_layers): Sequential(
                    (0): Linear(in_features=64, out_features=192, bias=True)
                  )
                )
                (2): MLP(
                  (_layers): Sequential(
                    (0): Linear(in_features=64, out_features=192, bias=True)
                  )
                )
              )
            )
            (2): RelationalMultiAggrMP(
              (message_fns): ModuleList(
                (0): MLP(
                  (_layers): Sequential(
                    (0): Linear(in_features=64, out_features=192, bias=True)
                  )
                )
                (1): MLP(
                  (_layers): Sequential(
                    (0): Linear(in_features=64, out_features=192, bias=True)
                  )
                )
                (2): MLP(
                  (_layers): Sequential(
                    (0): Linear(in_features=64, out_features=192, bias=True)
                  )
                )
              )
            )
            (3): RelationalMultiAggrMP(
              (message_fns): ModuleList(
                (0): MLP(
                  (_layers): Sequential(
                    (0): Linear(in_features=64, out_features=192, bias=True)
                  )
                )
                (1): MLP(
                  (_layers): Sequential(
                    (0): Linear(in_features=64, out_features=192, bias=True)
                  )
                )
                (2): MLP(
                  (_layers): Sequential(
                    (0): Linear(in_features=64, out_features=192, bias=True)
                  )
                )
              )
            )
          )
          (msg_out_projection): Linear(in_features=3072, out_features=128, bias=True)
          (mp_norm_layer): LayerNorm((128,), eps=1e-05, elementwise_affine=True)
          (boom_layer): BOOMLayer(
            (linear1): Linear(in_features=128, out_features=1024, bias=True)
            (activation): LeakyReLU(negative_slope=0.01)
            (dropout): Dropout(p=0.0, inplace=False)
            (linear2): Linear(in_features=1024, out_features=128, bias=True)
          )
          (boom_norm_layer): LayerNorm((128,), eps=1e-05, elementwise_affine=True)
          (dropout_layer): Dropout(p=0.0, inplace=False)
        )
        (6): GNNBlock(
          (mp_layers): ModuleList(
            (0): RelationalMultiAggrMP(
              (message_fns): ModuleList(
                (0): MLP(
                  (_layers): Sequential(
                    (0): Linear(in_features=64, out_features=192, bias=True)
                  )
                )
                (1): MLP(
                  (_layers): Sequential(
                    (0): Linear(in_features=64, out_features=192, bias=True)
                  )
                )
                (2): MLP(
                  (_layers): Sequential(
                    (0): Linear(in_features=64, out_features=192, bias=True)
                  )
                )
              )
            )
            (1): RelationalMultiAggrMP(
              (message_fns): ModuleList(
                (0): MLP(
                  (_layers): Sequential(
                    (0): Linear(in_features=64, out_features=192, bias=True)
                  )
                )
                (1): MLP(
                  (_layers): Sequential(
                    (0): Linear(in_features=64, out_features=192, bias=True)
                  )
                )
                (2): MLP(
                  (_layers): Sequential(
                    (0): Linear(in_features=64, out_features=192, bias=True)
                  )
                )
              )
            )
            (2): RelationalMultiAggrMP(
              (message_fns): ModuleList(
                (0): MLP(
                  (_layers): Sequential(
                    (0): Linear(in_features=64, out_features=192, bias=True)
                  )
                )
                (1): MLP(
                  (_layers): Sequential(
                    (0): Linear(in_features=64, out_features=192, bias=True)
                  )
                )
                (2): MLP(
                  (_layers): Sequential(
                    (0): Linear(in_features=64, out_features=192, bias=True)
                  )
                )
              )
            )
            (3): RelationalMultiAggrMP(
              (message_fns): ModuleList(
                (0): MLP(
                  (_layers): Sequential(
                    (0): Linear(in_features=64, out_features=192, bias=True)
                  )
                )
                (1): MLP(
                  (_layers): Sequential(
                    (0): Linear(in_features=64, out_features=192, bias=True)
                  )
                )
                (2): MLP(
                  (_layers): Sequential(
                    (0): Linear(in_features=64, out_features=192, bias=True)
                  )
                )
              )
            )
          )
          (msg_out_projection): Linear(in_features=3072, out_features=128, bias=True)
          (mp_norm_layer): LayerNorm((128,), eps=1e-05, elementwise_affine=True)
          (boom_layer): BOOMLayer(
            (linear1): Linear(in_features=128, out_features=1024, bias=True)
            (activation): LeakyReLU(negative_slope=0.01)
            (dropout): Dropout(p=0.0, inplace=False)
            (linear2): Linear(in_features=1024, out_features=128, bias=True)
          )
          (boom_norm_layer): LayerNorm((128,), eps=1e-05, elementwise_affine=True)
          (dropout_layer): Dropout(p=0.0, inplace=False)
        )
        (7): GNNBlock(
          (mp_layers): ModuleList(
            (0): RelationalMultiAggrMP(
              (message_fns): ModuleList(
                (0): MLP(
                  (_layers): Sequential(
                    (0): Linear(in_features=64, out_features=192, bias=True)
                  )
                )
                (1): MLP(
                  (_layers): Sequential(
                    (0): Linear(in_features=64, out_features=192, bias=True)
                  )
                )
                (2): MLP(
                  (_layers): Sequential(
                    (0): Linear(in_features=64, out_features=192, bias=True)
                  )
                )
              )
            )
            (1): RelationalMultiAggrMP(
              (message_fns): ModuleList(
                (0): MLP(
                  (_layers): Sequential(
                    (0): Linear(in_features=64, out_features=192, bias=True)
                  )
                )
                (1): MLP(
                  (_layers): Sequential(
                    (0): Linear(in_features=64, out_features=192, bias=True)
                  )
                )
                (2): MLP(
                  (_layers): Sequential(
                    (0): Linear(in_features=64, out_features=192, bias=True)
                  )
                )
              )
            )
            (2): RelationalMultiAggrMP(
              (message_fns): ModuleList(
                (0): MLP(
                  (_layers): Sequential(
                    (0): Linear(in_features=64, out_features=192, bias=True)
                  )
                )
                (1): MLP(
                  (_layers): Sequential(
                    (0): Linear(in_features=64, out_features=192, bias=True)
                  )
                )
                (2): MLP(
                  (_layers): Sequential(
                    (0): Linear(in_features=64, out_features=192, bias=True)
                  )
                )
              )
            )
            (3): RelationalMultiAggrMP(
              (message_fns): ModuleList(
                (0): MLP(
                  (_layers): Sequential(
                    (0): Linear(in_features=64, out_features=192, bias=True)
                  )
                )
                (1): MLP(
                  (_layers): Sequential(
                    (0): Linear(in_features=64, out_features=192, bias=True)
                  )
                )
                (2): MLP(
                  (_layers): Sequential(
                    (0): Linear(in_features=64, out_features=192, bias=True)
                  )
                )
              )
            )
          )
          (msg_out_projection): Linear(in_features=3072, out_features=128, bias=True)
          (mp_norm_layer): LayerNorm((128,), eps=1e-05, elementwise_affine=True)
          (boom_layer): BOOMLayer(
            (linear1): Linear(in_features=128, out_features=1024, bias=True)
            (activation): LeakyReLU(negative_slope=0.01)
            (dropout): Dropout(p=0.0, inplace=False)
            (linear2): Linear(in_features=1024, out_features=128, bias=True)
          )
          (boom_norm_layer): LayerNorm((128,), eps=1e-05, elementwise_affine=True)
          (dropout_layer): Dropout(p=0.0, inplace=False)
        )
        (8): GNNBlock(
          (mp_layers): ModuleList(
            (0): RelationalMultiAggrMP(
              (message_fns): ModuleList(
                (0): MLP(
                  (_layers): Sequential(
                    (0): Linear(in_features=64, out_features=192, bias=True)
                  )
                )
                (1): MLP(
                  (_layers): Sequential(
                    (0): Linear(in_features=64, out_features=192, bias=True)
                  )
                )
                (2): MLP(
                  (_layers): Sequential(
                    (0): Linear(in_features=64, out_features=192, bias=True)
                  )
                )
              )
            )
            (1): RelationalMultiAggrMP(
              (message_fns): ModuleList(
                (0): MLP(
                  (_layers): Sequential(
                    (0): Linear(in_features=64, out_features=192, bias=True)
                  )
                )
                (1): MLP(
                  (_layers): Sequential(
                    (0): Linear(in_features=64, out_features=192, bias=True)
                  )
                )
                (2): MLP(
                  (_layers): Sequential(
                    (0): Linear(in_features=64, out_features=192, bias=True)
                  )
                )
              )
            )
            (2): RelationalMultiAggrMP(
              (message_fns): ModuleList(
                (0): MLP(
                  (_layers): Sequential(
                    (0): Linear(in_features=64, out_features=192, bias=True)
                  )
                )
                (1): MLP(
                  (_layers): Sequential(
                    (0): Linear(in_features=64, out_features=192, bias=True)
                  )
                )
                (2): MLP(
                  (_layers): Sequential(
                    (0): Linear(in_features=64, out_features=192, bias=True)
                  )
                )
              )
            )
            (3): RelationalMultiAggrMP(
              (message_fns): ModuleList(
                (0): MLP(
                  (_layers): Sequential(
                    (0): Linear(in_features=64, out_features=192, bias=True)
                  )
                )
                (1): MLP(
                  (_layers): Sequential(
                    (0): Linear(in_features=64, out_features=192, bias=True)
                  )
                )
                (2): MLP(
                  (_layers): Sequential(
                    (0): Linear(in_features=64, out_features=192, bias=True)
                  )
                )
              )
            )
          )
          (msg_out_projection): Linear(in_features=3072, out_features=128, bias=True)
          (mp_norm_layer): LayerNorm((128,), eps=1e-05, elementwise_affine=True)
          (boom_layer): BOOMLayer(
            (linear1): Linear(in_features=128, out_features=1024, bias=True)
            (activation): LeakyReLU(negative_slope=0.01)
            (dropout): Dropout(p=0.0, inplace=False)
            (linear2): Linear(in_features=1024, out_features=128, bias=True)
          )
          (boom_norm_layer): LayerNorm((128,), eps=1e-05, elementwise_affine=True)
          (dropout_layer): Dropout(p=0.0, inplace=False)
        )
        (9): GNNBlock(
          (mp_layers): ModuleList(
            (0): RelationalMultiAggrMP(
              (message_fns): ModuleList(
                (0): MLP(
                  (_layers): Sequential(
                    (0): Linear(in_features=64, out_features=192, bias=True)
                  )
                )
                (1): MLP(
                  (_layers): Sequential(
                    (0): Linear(in_features=64, out_features=192, bias=True)
                  )
                )
                (2): MLP(
                  (_layers): Sequential(
                    (0): Linear(in_features=64, out_features=192, bias=True)
                  )
                )
              )
            )
            (1): RelationalMultiAggrMP(
              (message_fns): ModuleList(
                (0): MLP(
                  (_layers): Sequential(
                    (0): Linear(in_features=64, out_features=192, bias=True)
                  )
                )
                (1): MLP(
                  (_layers): Sequential(
                    (0): Linear(in_features=64, out_features=192, bias=True)
                  )
                )
                (2): MLP(
                  (_layers): Sequential(
                    (0): Linear(in_features=64, out_features=192, bias=True)
                  )
                )
              )
            )
            (2): RelationalMultiAggrMP(
              (message_fns): ModuleList(
                (0): MLP(
                  (_layers): Sequential(
                    (0): Linear(in_features=64, out_features=192, bias=True)
                  )
                )
                (1): MLP(
                  (_layers): Sequential(
                    (0): Linear(in_features=64, out_features=192, bias=True)
                  )
                )
                (2): MLP(
                  (_layers): Sequential(
                    (0): Linear(in_features=64, out_features=192, bias=True)
                  )
                )
              )
            )
            (3): RelationalMultiAggrMP(
              (message_fns): ModuleList(
                (0): MLP(
                  (_layers): Sequential(
                    (0): Linear(in_features=64, out_features=192, bias=True)
                  )
                )
                (1): MLP(
                  (_layers): Sequential(
                    (0): Linear(in_features=64, out_features=192, bias=True)
                  )
                )
                (2): MLP(
                  (_layers): Sequential(
                    (0): Linear(in_features=64, out_features=192, bias=True)
                  )
                )
              )
            )
          )
          (msg_out_projection): Linear(in_features=3072, out_features=128, bias=True)
          (mp_norm_layer): LayerNorm((128,), eps=1e-05, elementwise_affine=True)
          (boom_layer): BOOMLayer(
            (linear1): Linear(in_features=128, out_features=1024, bias=True)
            (activation): LeakyReLU(negative_slope=0.01)
            (dropout): Dropout(p=0.0, inplace=False)
            (linear2): Linear(in_features=1024, out_features=128, bias=True)
          )
          (boom_norm_layer): LayerNorm((128,), eps=1e-05, elementwise_affine=True)
          (dropout_layer): Dropout(p=0.0, inplace=False)
        )
      )
    )
    (readout): CombinedGraphReadout(
      (_weighted_mean_pooler): MultiHeadWeightedGraphReadout(
        (_scoring_module): MLP(
          (_layers): Sequential(
            (0): Linear(in_features=1408, out_features=768, bias=True)
            (1): ReLU()
            (2): Linear(in_features=768, out_features=12, bias=True)
          )
        )
        (_transformation_mlp): MLP(
          (_layers): Sequential(
            (0): Linear(in_features=1408, out_features=768, bias=True)
            (1): ReLU()
            (2): Linear(in_features=768, out_features=768, bias=True)
          )
        )
        (_combination_layer): Linear(in_features=768, out_features=512, bias=False)
      )
      (_weighted_sum_pooler): MultiHeadWeightedGraphReadout(
        (_scoring_module): MLP(
          (_layers): Sequential(
            (0): Linear(in_features=1408, out_features=768, bias=True)
            (1): ReLU()
            (2): Linear(in_features=768, out_features=12, bias=True)
          )
        )
        (_transformation_mlp): MLP(
          (_layers): Sequential(
            (0): Linear(in_features=1408, out_features=768, bias=True)
            (1): ReLU()
            (2): Linear(in_features=768, out_features=768, bias=True)
          )
        )
        (_combination_layer): Linear(in_features=768, out_features=512, bias=False)
      )
      (_max_pooler): UnweightedGraphReadout(
        (_combination_layer): Linear(in_features=1408, out_features=512, bias=False)
      )
      (_combination_layer): Linear(in_features=1536, out_features=512, bias=False)
    )
  )
  (fc): Sequential(
    (0): Linear(in_features=2560, out_features=1024, bias=True)
    (1): ReLU()
    (2): Linear(in_features=1024, out_features=512, bias=True)
  )
)
2024-05-05 09:53:09: Loading pretrained GNN weights from /home/gridsan/ppaschalidis/Ersilia-FS/weights/multitask_best_model.pt.
Our state dict keys:  odict_keys(['graph_feature_extractor.init_node_proj.weight', 'graph_feature_extractor.gnn.gnn_blocks.0.alpha', 'graph_feature_extractor.gnn.gnn_blocks.0.mp_layers.0.message_fns.0._layers.0.weight',
…
