…
2024-05-29 22:18:49: 	Output dir: /home/gridsan/ppaschalidis/Ersilia-FS/fs_mol/outputs/train/FSMol_Multitask_2024-05-29-support-08/FSMol_Multitask_2024-05-29_22-18-49
2024-05-29 22:18:49: 	Data path: /home/gridsan/ppaschalidis/Ersilia-FS/dataset/min_size_08
2024-05-29 22:18:50: Identified 1487 training tasks.
2024-05-29 22:18:50: Identified 78 validation tasks.
2024-05-29 22:18:50: Identified 200 test tasks.
2024-05-29 22:18:52: 	Num parameters 16920561
2024-05-29 22:18:52: 	Device: cuda
2024-05-29 22:18:52: 	Model:
GNNMultitaskModel(
  (criterion): BCEWithLogitsLoss()
  (graph_feature_extractor): GraphFeatureExtractor(
    (init_node_proj): Linear(in_features=32, out_features=128, bias=False)
    (gnn): GNN(
      (gnn_blocks): ModuleList(
        (0-9): 10 x GNNBlock(
          (mp_layers): ModuleList(
            (0-3): 4 x RelationalMultiAggrMP(
              (message_fns): ModuleList(
                (0-2): 3 x MLP(
                  (_layers): Sequential(
                    (0): Linear(in_features=64, out_features=192, bias=True)
                  )
                )
              )
            )
          )
          (msg_out_projection): Linear(in_features=3072, out_features=128, bias=True)
          (mp_norm_layer): LayerNorm((128,), eps=1e-05, elementwise_affine=True)
          (boom_layer): BOOMLayer(
            (linear1): Linear(in_features=128, out_features=1024, bias=True)
            (activation): LeakyReLU(negative_slope=0.01)
            (dropout): Dropout(p=0.0, inplace=False)
            (linear2): Linear(in_features=1024, out_features=128, bias=True)
          )
          (boom_norm_layer): LayerNorm((128,), eps=1e-05, elementwise_affine=True)
          (dropout_layer): Dropout(p=0.0, inplace=False)
        )
      )
    )
    (readout): CombinedGraphReadout(
      (_weighted_mean_pooler): MultiHeadWeightedGraphReadout(
        (_scoring_module): MLP(
          (_layers): Sequential(
            (0): Linear(in_features=1408, out_features=768, bias=True)
            (1): ReLU()
            (2): Linear(in_features=768, out_features=12, bias=True)
          )
        )
        (_transformation_mlp): MLP(
          (_layers): Sequential(
            (0): Linear(in_features=1408, out_features=768, bias=True)
            (1): ReLU()
            (2): Linear(in_features=768, out_features=768, bias=True)
          )
        )
        (_combination_layer): Linear(in_features=768, out_features=512, bias=False)
      )
      (_weighted_sum_pooler): MultiHeadWeightedGraphReadout(
        (_scoring_module): MLP(
          (_layers): Sequential(
            (0): Linear(in_features=1408, out_features=768, bias=True)
            (1): ReLU()
            (2): Linear(in_features=768, out_features=12, bias=True)
          )
        )
        (_transformation_mlp): MLP(
          (_layers): Sequential(
            (0): Linear(in_features=1408, out_features=768, bias=True)
            (1): ReLU()
            (2): Linear(in_features=768, out_features=768, bias=True)
          )
        )
        (_combination_layer): Linear(in_features=768, out_features=512, bias=False)
      )
      (_max_pooler): UnweightedGraphReadout(
        (_combination_layer): Linear(in_features=1408, out_features=512, bias=False)
      )
      (_combination_layer): Linear(in_features=1536, out_features=512, bias=False)
    )
  )
  (tail_mlp): MLP(
    (_layers): Sequential(
      (0): Linear(in_features=512, out_features=512, bias=True)
      (1): ReLU()
      (2): Linear(in_features=512, out_features=1487, bias=True)
    )
  )
)
2024-05-29 22:18:52:   Initial validation metric: -inf
2024-05-29 22:18:52: == Epoch 0
2024-05-29 22:18:52:   = Training
2024-05-29 22:19:28:   Mean train loss: 0.69336
2024-05-29 22:19:28:   Mean train roc_auc: 0.50079
2024-05-29 22:19:28:   = Validation
2024-05-29 22:19:31: === Evaluating on CHEMBL4621283, #train 16, run 0
2024-05-29 22:19:31:  Test - Task CHEMBL4621283 - Size  16 - Run 0 CHEMBL4621283:
…
