…
specific_lr=0.0001, finetune_lr_scale=1.0)
2024-05-28 14:32:58: 	Output dir: outputs/FSMol_Multitask_2024-05-28_14-32-58
2024-05-28 14:32:58: 	Data path: /home/gridsan/ppaschalidis/Ersilia-FS/dataset/min_size_16
2024-05-28 14:32:58: Identified 655 training tasks.
2024-05-28 14:32:58: Identified 34 validation tasks.
2024-05-28 14:32:58: Identified 200 test tasks.
2024-05-28 14:33:05: 	Num parameters 16493745
2024-05-28 14:33:05: 	Device: cuda
2024-05-28 14:33:05: 	Model:
GNNMultitaskModel(
  (criterion): BCEWithLogitsLoss()
  (graph_feature_extractor): GraphFeatureExtractor(
    (init_node_proj): Linear(in_features=32, out_features=128, bias=False)
    (gnn): GNN(
      (gnn_blocks): ModuleList(
        (0-9): 10 x GNNBlock(
          (mp_layers): ModuleList(
            (0-3): 4 x RelationalMultiAggrMP(
              (message_fns): ModuleList(
                (0-2): 3 x MLP(
                  (_layers): Sequential(
                    (0): Linear(in_features=64, out_features=192, bias=True)
                  )
                )
              )
            )
          )
          (msg_out_projection): Linear(in_features=3072, out_features=128, bias=True)
          (mp_norm_layer): LayerNorm((128,), eps=1e-05, elementwise_affine=True)
          (boom_layer): BOOMLayer(
            (linear1): Linear(in_features=128, out_features=1024, bias=True)
            (activation): LeakyReLU(negative_slope=0.01)
            (dropout): Dropout(p=0.0, inplace=False)
            (linear2): Linear(in_features=1024, out_features=128, bias=True)
          )
          (boom_norm_layer): LayerNorm((128,), eps=1e-05, elementwise_affine=True)
          (dropout_layer): Dropout(p=0.0, inplace=False)
        )
      )
    )
    (readout): CombinedGraphReadout(
      (_weighted_mean_pooler): MultiHeadWeightedGraphReadout(
        (_scoring_module): MLP(
          (_layers): Sequential(
            (0): Linear(in_features=1408, out_features=768, bias=True)
            (1): ReLU()
            (2): Linear(in_features=768, out_features=12, bias=True)
          )
        )
        (_transformation_mlp): MLP(
          (_layers): Sequential(
            (0): Linear(in_features=1408, out_features=768, bias=True)
            (1): ReLU()
            (2): Linear(in_features=768, out_features=768, bias=True)
          )
        )
        (_combination_layer): Linear(in_features=768, out_features=512, bias=False)
      )
      (_weighted_sum_pooler): MultiHeadWeightedGraphReadout(
        (_scoring_module): MLP(
          (_layers): Sequential(
            (0): Linear(in_features=1408, out_features=768, bias=True)
            (1): ReLU()
            (2): Linear(in_features=768, out_features=12, bias=True)
          )
        )
        (_transformation_mlp): MLP(
          (_layers): Sequential(
            (0): Linear(in_features=1408, out_features=768, bias=True)
            (1): ReLU()
            (2): Linear(in_features=768, out_features=768, bias=True)
          )
        )
        (_combination_layer): Linear(in_features=768, out_features=512, bias=False)
      )
      (_max_pooler): UnweightedGraphReadout(
        (_combination_layer): Linear(in_features=1408, out_features=512, bias=False)
      )
      (_combination_layer): Linear(in_features=1536, out_features=512, bias=False)
    )
  )
  (tail_mlp): MLP(
    (_layers): Sequential(
      (0): Linear(in_features=512, out_features=512, bias=True)
      (1): ReLU()
      (2): Linear(in_features=512, out_features=655, bias=True)
    )
  )
)
2024-05-28 14:33:05:   Initial validation metric: -inf
2024-05-28 14:33:05: == Epoch 0
2024-05-28 14:33:05:   = Training
2024-05-28 14:33:31:   Mean train loss: 0.69284
2024-05-28 14:33:31:   Mean train roc_auc: 0.49471
2024-05-28 14:33:31:   = Validation
2024-05-28 14:33:33: === Evaluating on CHEMBL4028611, #train 16, run 0
2024-05-28 14:33:33:  Test - Task CHEMBL4028611 - Size  16 - Run 0 CHEMBL4028611:
…
